python/pytorchserver/pytorchserver/model.pt (torch_old, 249602 bytes, 10 tensors)

conv1.weight f4 [6, 3, 5, 5]
0.040630013 0.1485579 0.37955227 0.35637617 0.3863443 0.062167212 0.123386204 0.26505706
0.49474087 0.46373475 -0.17595464 -0.20616673 -0.1258889 0.0027121096 0.31016856 -0.15883714
-0.3226546 -0.26659793 -0.18976332 -0.14863452 -0.008434785 -0.05813455 0.087853014 -0.024363477
-0.028750641 -0.3148483 -0.16194375 0.004884338 -0.10236181 -0.10963105 -0.30636364 -0.42451966
-0.26941982 0.0028657913 0.17237855 -0.14848071 -0.34480125 -0.42296502 -0.37213415 -0.038183782
0.016271427 -0.22652608 -0.4065689 -0.46236873 -0.26876387 0.28301156 0.12553793 0.06207523
0.01108625 -0.013642734 0.06107449 -0.11820282 0.08124786 -0.07882066 -0.026143191 -0.06841375
-0.06932045 0.054234 0.19700995 0.2277592 0.10043774 -0.053957514 -0.34389362 -0.095849864
0.11345541 0.38100788 0.04254355 -0.13044097 -0.28818384 -0.18214752 0.48056778 0.55735856
0.34101316 0.24494803 0.037928764 0.0640041 0.025960995 0.3806688 0.28901345 0.2709205
0.2651695 0.39003962 0.4238035 0.34565687 0.051377654 -0.12900352 -0.20768185 -0.32253373
-0.3762204 -0.15880616 -0.17966855 -0.34111017 -0.2969358 -0.29051632 -0.20809609 0.10412537
-0.16912478 0.07391868 -0.023093294 -0.22028235 0.1471929 0.13933489 0.16726634 0.20768075
0.13821039 0.17930429 0.3566117 0.33148256 0.20829149 -0.026802402 -0.12803581 -0.14649084
-0.40129882 -0.26365378 -0.120188594 -0.101869345 -0.37419397 -0.30027422 -0.05919864 0.057376064
0.086131655 0.09792392 0.071057245 0.027129518 -0.062005207 -0.017128177 -0.095096774 0.0072470284
-0.03078694 -0.124900244 0.2718691 0.28319025 0.2419041 0.03209671 -0.057038628 0.0058322386
-0.14233536 -0.41094336 -0.23878074 -0.12746873 -0.11878453 -0.12473325 -0.2034197 -0.04294651
0.013041299 0.13223872 0.19414668 0.24942082 0.17295979 0.16758317 0.04713729 0.16601178
-0.12044651 -0.12929277 0.18932503 0.12394605 0.3230853 -0.20027071 -0.4707043 0.2078381
0.06989616 0.32841527 -0.15191159 -0.49828416 0.0832696 0.07243547 0.16754314 0.042667594
-0.4594334 0.18786258 -0.05183388 0.18596748 -0.11232109 -0.27611133 -0.07028569 0.12201982
0.11722743 -0.23688875 -0.23243363 0.055139627 0.20857057 0.319079 -0.35623 -0.5538025
0.25670558 0.20955247 0.42809376 -0.16119802 -0.6261939 0.1853723 0.04665105 0.35639682
-0.1045382 -0.4930784 0.09341246 0.03892715 0.23385344 0.050085396 -0.13477099 0.16875382
0.0075653945 0.1269468 -0.21396266 -0.14633878 0.04080231 0.15165623 0.3294502 -0.26059705
-0.43201092 0.10511304 0.18792509 0.26121032 -0.035506804 -0.53548247 0.12503223 0.15856716
0.22376022 0.03229808 -0.29939216 0.10524548 -0.04582427 0.124002315 0.0050940653 -0.21229567
0.015855733 -0.00016704419 0.20224956 0.2502215 -0.07524383 -0.25722188 0.14720212 0.20428336
-0.113497265 -0.4101007 -0.16660821 0.20463893 -0.17843105 -0.32031053 -0.23208906 0.20734586
-0.19342005 -0.34456664 -0.16359653 0.048041236 0.2683972 -0.08876845 0.017145913 0.0948182
0.16457522 0.25345907 -0.047169637 0.25331882 0.12995262 -0.17880252 -0.29815635 0.11177963
00000000: a86b 263d 901f 183e ad54 c23e f076 b63e
00000010: ecce c53e 0ca3 7e3d e8b1 fc3d 8fb5 873e
00000020: ad4e fd3e a46e ed3e 742d 34be 5f1d 53be
00000030: 05e9 00be a6bd 313b 6ace 9e3e 34a6 22be
00000040: fc32 a5be 867f 88be 5151 42be a633 18be
00000050: 0d32 0abc 7e1e 6ebd 48ec b33d ea95 c7bc
00000060: 7786 ebbc cc33 a1be 95d4 25be cc0c a03b
00000070: 12a3 d1bd 3e86 e0bd b2db 9cbe a45a d9be
00000080: 65f1 89be 00d0 3b3b 0184 303e 540b 18be
00000090: ca89 b0be df8e d8be 5e88 bebe 9966 1cbd
000000a0: a84b 853c 74f6 67be cd29 d0be 98bb ecbe
000000b0: 6b9b 89be e4e6 903e 048d 003e 9942 7e3d
000000c0: 1aa3 353c c685 5fbc 3f29 7a3d 5214 f2bd
000000d0: 4765 a63d ba6c a1bd 3f2a d6bc 821c 8cbd
000000e0: e1f7 8dbd 7924 5e3d fabc 493e b539 693e
000000f0: 4db2 cd3d 8e02 5dbd d312 b0be ef4c c4bd
00000100: 4f5b e83d 7713 c33e 2542 2e3d 5192 05be
00000110: d58c 93be e184 3abe fb0c f63e 0daf 0e3f
00000120: 4799 ae3e a8d3 7a3e 315b 1b3d 9514 833d
00000130: 27ac d43c 05e7 c23e 92f9 933e 17b6 8a3e
00000140: 4cc4 873e 46b3 c73e c6fc d83e f0f9 b03e
00000150: 6071 523d 8019 04be 8daa 54be 2423 a5be
00000160: f69f c0be 159e 22be 08fb 37be fea5 aebe
00000170: f807 98be 8ebe 94be 2417 55be af3f d53d
00000180: 0c2f 2dbe ad62 973d 262e bdbc b291 61be
00000190: bcb9 163e cead 0e3e de47 2b3e 43aa 543e
000001a0: 0687 0d3e 8b9b 373e cf95 b63e 15b8 a93e
000001b0: 5d4a 553e b690 dbbc d21b 03be b201 16be
000001c0: 0a77 cdbe a1fd 86be 7025 f6bd e0a0 d0bd
000001d0: 5a96 bfbe 8bbd 99be 467a 72bd 2a03 6b3d
000001e0: cb65 b03d 568c c83d 7686 913d b93e de3c
000001f0: 2cf9 7dbd 6450 8cbc 19c2 c2bd 7b78 ed3b
00000200: e534 fcbc b3cb ffbd 6d32 8b3e 50fe 903e
00000210: b5b5 773e d777 033d 56a1 69bd 5d1c bf3b
00000220: 5cc0 11be 2b67 d2be f082 74be 2a87 02be
00000230: 4e45 f3bd 2574 ffbd 414d 50be aee8 2fbd
00000240: 2cab 553c 9669 073e 63ce 463e 2c68 7f3e
00000250: 5f1c 313e ec9a 2b3e 0813 413d fefe 293e
00000260: a9ac f6bd 5365 04be 6cde 413e 6dd7 fd3d
00000270: 706b a53e c413 4dbe 2700 f1be 83d3 543e
00000280: b825 8f3d 0c26 a83e b68e 1bbe 1a1f ffbe
00000290: 4189 aa3d 0c59 943d 6e90 2b3e 37c4 2e3d
000002a0: db3a ebbe 0c5f 403e c34f 54bd 426e 3e3e
000002b0: 9a08 e6bd 775e 8dbe f2f1 8fbd 87e5 f93d
000002c0: ef14 f03d f792 72be 1503 6ebe 17da 613d
000002d0: 8693 553e 535e a33e c763 b6be 00c6 0dbf
000002e0: ea6e 833e ec94 563e 1b2f db3e 1811 25be
000002f0: 3e4e 20bf 3cd2 3d3e 2c15 3f3d a579 b63e
00000300: 2018 d6bd c674 fcbe 084f bf3d 1372 1f3d
00000310: 4777 6f3e 5826 4d3d 6801 0abe cdcd 2c3e
00000320: 21e7 f73b 58fe 013e 0719 5bbe d5d9 15be
00000330: 5320 273d c54b 1b3e b2ad a83e fa6c 85be
00000340: 8930 ddbe 8145 d73d 6f6f 403e 5cbd 853e
00000350: 956f 11bd 6115 09bf 7308 003e 6e5f 223e
00000360: 6621 653e fe4a 043d ee49 99be f18a d73d
00000370: 3bb2 3bbd edf4 fd3d 1eec a63b 0964 59be
00000380: e2e3 813c 9528 2fb9 821a 4f3e 081d 803e
00000390: 7019 9abd 96b2 83be 27bc 163e a82f 513e
000003a0: 4171 e8bd b8f8 d1be 589b 2abe de8c 513e
000003b0: a1b6 36be beff a3be c1a8 6dbe 7952 543e
000003c0: e80f 46be 0a6b b0be d985 27be e3c6 443d
000003d0: 5c6b 893e 3ccc b5bd 9675 8c3c 0b30 c23d
000003e0: 6886 283e 63c5 813e f334 41bd 01b3 813e
000003f0: 4d12 053e 0218 37be f3a7 98be b8ec e43d

conv1.bias f4 [6]
-0.43712005 -0.4941042 -0.20581385 -0.32973918 0.3994701 0.10982053
00000000: 33ce dfbe 3afb fcbe dec0 52be 93d3 a8be
00000010: 5887 cc3e 96e9 e03d

conv2.weight f4 [16, 6, 5, 5]
0.00956666 0.021221615 0.08580553 0.095015 0.04335267 0.112665705 -0.053397812 -0.019949902
0.07523048 0.064105205 0.28388512 0.23996772 -0.043835055 -0.03263846 -0.028948246 0.06301377
0.37022728 0.28762406 0.024007356 -0.111942336 -0.084400505 0.09130288 0.31838253 0.2918266
-0.020265106 0.1216003 -0.025759412 -0.089333415 -0.034928568 -0.036774818 0.08449461 -0.017094065
-0.22711231 -0.10807367 0.09521584 -0.03800256 0.089873016 -0.16368128 -0.17770535 -0.12222679
-0.16110851 -0.05605315 0.029117102 -0.13416725 -0.1747246 -0.19128597 -0.13614514 -0.040282812
0.08818007 0.06820631 -0.2318453 0.1127832 -0.023314103 -0.052141864 0.022736266 -0.2681772
-0.16634773 -0.041519675 0.03368183 0.031377047 0.054157734 -0.14895095 0.09338186 0.08630201
0.107610665 0.27882326 0.084225714 0.038572993 0.11719977 0.04941607 0.1480663 0.24037193
-0.018639717 -0.13547234 -0.18982749 0.038904704 -0.014220467 -0.05965338 -0.09178942 -0.21382447
-0.005217134 -0.17832655 -0.09418705 -0.026085269 -0.026264716 0.054423243 -0.11979493 -0.08945084
-0.04367297 -0.15538941 0.004306361 -0.14807968 -0.12896702 -0.100562684 -0.0024054286 0.046019007
0.12294613 0.1007564 0.016890354 0.12449534 -0.08275617 0.0097591225 0.01778406 -0.07626886
-0.029393086 -0.002035211 0.042463098 0.03715875 0.06095023 0.079572655 -0.07126639 0.04098092
0.0143890465 0.09739492 0.018065397 -0.084507495 -0.031526238 0.012254187 0.096049696 0.056925096
-0.008598934 -0.030371271 0.026632877 0.122956246 0.056254283 0.052928183 0.019513236 -0.0074198325
-0.061389737 -1.3789509e-05 -0.009083734 0.009764908 0.072530665 0.0139130205 0.086349435 -0.05931095
0.01898866 0.0004822641 0.046809215 0.04979289 -0.16914934 -0.23799291 -0.07361964 -0.015317023
0.030302884 -0.10724904 -0.18635786 -0.17701538 -0.2049357 -0.052102193 -0.0158241 0.02567105
0.02480513 0.106828146 0.15841886 -0.14726226 -0.03963403 -0.11568368 0.031489667 0.12473931
-0.091425136 -0.0031142219 0.0013328615 0.009125532 0.01327109 -0.007155424 -0.05418258 -0.09403452
-0.03386917 0.046788752 -0.2020075 -0.015872546 0.030956188 -0.11462777 -0.080194324 -0.13470773
0.054706678 -0.08826364 0.030870425 0.001614834 0.07044864 0.07702206 -0.0017392043 0.0024663685
-0.07301276 0.105404615 0.037751198 0.024476115 -0.046715856 -0.023470832 0.072827056 0.09269226
0.04809862 -0.0036447563 -0.011183001 -0.027980749 0.040719543 -0.017901191 -0.061793216 -0.13944131
-0.046008043 -0.14546353 -0.055440772 0.24616048 -0.07574019 0.0018689038 0.028892705 0.0540635
0.20227571 0.09945842 -0.13992421 0.07438173 -0.007542443 -0.066234775 0.34054953 0.1829826
0.002470082 0.027041107 -0.063910104 0.2999667 0.17482306 -0.09433974 0.09716562 -0.047697842
0.08200223 -0.02615971 -0.18808888 -0.15313156 0.02531418 0.061061732 -0.16785122 -0.034987327
0.0073233005 0.04708795 -0.062380236 -0.10807258 0.115978494 0.19652198 -0.1561357 -0.10789425
-0.05430879 0.057489183 -0.14760317 -0.014477172 -0.12875238 -0.027536267 -0.052156467 -0.05105208
0.032440655 -0.0075618527 -0.2406132 -0.283856 -0.24372748 -0.042890828 0.007955616 -0.17432413
00000000: 7bbd 1c3c f4d8 ad3c cfba af3d 3997 c23d
00000010: 9292 313d 47bd e63d aab7 5abd fa6d a3bc
00000020: 7012 9a3d 9749 833d 6459 913e 19ba 753e
00000030: 638c 33bd e8af 05bd df24 edbc 5d0d 813d
00000040: 6e8e bd3e 7643 933e 13ab c43c 0642 e5bd
00000050: 2cda acbd 01fd ba3d 0903 a33e 4c6a 953e
00000060: 0203 a6bc 9409 f93d 6705 d3bc 70f4 b6bd
00000070: 4211 0fbd 31a1 16bd 830b ad3d da08 8cbc
00000080: 2190 68be ba55 ddbd 8600 c33d 93a8 1bbd
00000090: 580f b83d 119c 27be 64f8 35be 0a52 fabd
000000a0: a1f9 24be fd97 65bd fd86 ee3c 2463 09be
000000b0: 01eb 32be 78e0 43be a269 0bbe 97ff 24bd
000000c0: c197 b43d c0af 8b3d db68 6dbe e1fa e63d
000000d0: 38fd bebc b592 55bd 6841 ba3c 864e 89be
000000e0: 0f57 2abe 8910 2abd f5f5 093d 3885 003d
000000f0: 80d4 5d3d 9986 18be fd3e bf3d 1cbf b03d
00000100: fb62 dc3d ecc1 8e3e 887e ac3d b7fe 1d3d
00000110: 6f06 f03d 8168 4a3d b19e 173e 0f24 763e
00000120: 52b2 98bc 43b9 0abe 2362 42be 8a5a 1f3d
00000130: f6fc 68bc 1a57 74bd 17fc bbbd cdf4 5abe
00000140: 7ef4 aabb 3c9b 36be 24e5 c0bd c6b0 d5bc
00000150: 1a29 d7bc e8ea 5e3d 0b57 f5bd 0132 b7bd
00000160: 6ee2 32bd 671e 1fbe 601c 8d3b 33a2 17be
00000170: ee0f 04be cff3 cdbd 65a4 1dbb 6d7e 3c3d
00000180: 2ecb fb3d 5f59 ce3d a45d 8a3c 6af7 fe3d
00000190: 117c a9bd bae4 1f3c e1af 913c d932 9cbd
000001a0: c5c9 f0bc 2d61 05bb c9ed 2d3d c633 183d
000001b0: f3a6 793d fdf6 a23d 1df4 91bd 9cdb 273d
000001c0: 09c0 6b3c fd76 c73d e2fd 933c 4412 adbd
000001d0: a821 01bd c9c5 483c b4b5 c43d 4a2a 693d
000001e0: 8be2 0cbc 2ccd f8bc 312d da3c 7cd0 fb3d
000001f0: e46a 663d 39cb 583d 39da 9f3c 1122 f3bb
00000200: ce73 7bbd 7d59 67b7 f1d3 14bc fefc 1f3c
00000210: f58a 943d 70f3 633c f9d7 b03d 0af0 72bd
00000220: 1b8e 9b3c 64d8 fc39 05bb 3f3d a1f3 4b3d
00000230: 7c35 2dbe 6ab4 73be e5c5 96bd 40f4 7abc
00000240: c13d f83c 62a5 dbbd 98d4 3ebe 8543 35be
00000250: aada 51be 1c69 55bd 8ba1 81bc 184c d23c
00000260: 2134 cb3c b7c8 da3d 8e38 223e ebcb 16be
00000270: 4b57 22bd 91eb ecbd 4ffb 003d 5377 ff3d
00000280: 1a3d bbbd f917 4cbb 69b3 ae3a 4183 153c
00000290: fc6e 593c 0c78 eabb 8eee 5dbd 2c95 c0bd
000002a0: 66ba 0abd 90a5 3f3d 0edb 4ebe 2407 82bc
000002b0: d597 fd3c f7c1 eabd ec3c a4bd d3f0 09be
000002c0: 1c14 603d 91c3 b4bd f9e3 fc3c d6a8 d33a
000002d0: 6047 903d bebd 9d3d 03f6 e3ba cca2 213b
000002e0: b787 95bd 60de d73d 00a1 1a3d 2282 c83c
000002f0: 2059 3fbd e745 c0bc 5a26 953d 71d5 bd3d
00000300: 0f03 453d dddc 6ebb e838 37bc e237 e5bc
00000310: 89c9 263d 85a5 92bc e21a 7dbd b4c9 0ebe
00000320: ee72 3cbd 64f4 14be dd15 63bd 7e11 7c3e
00000330: ac1d 9bbd 01f6 f43a 65b0 ec3c b071 5d3d
00000340: 5d21 4f3e dbb0 cb3d 4b48 0fbe 7355 983d
00000350: 9926 f7bb 19a6 87bd 825c ae3e ca5f 3b3e
00000360: 19e1 213b 5085 dd3c 4de3 82bd 3c95 993e
00000370: d104 333e 3235 c1bd c5fe c63d d05e 43bd
00000380: c9f0 a73d e34c d6bc 5f9a 40be 85ce 1cbe
00000390: af5f cf3c de1b 7a3d 31e1 2bbe df4e 0fbd
000003a0: 4cf8 ef3b 4bdf 403d 6b82 7fbd 2855 ddbd
000003b0: 2286 ed3d 0f3d 493e 09e2 1fbe a9f7 dcbd
000003c0: e572 5ebd c779 6b3d 4925 17be a931 6dbc
000003d0: aad7 03be bd93 e1bc 05a2 55bd fc1b 51bd
000003e0: 7ee0 043d 6bc9 f7bb 4f63 76be 9355 91be
000003f0: b293 79be 4bae 2fbd 4658 023c 0682 32be

conv2.bias f4 [16]
-0.5250129 0.8853584 -0.43238598 0.92423314 -0.16266584 0.36897346 -0.18747795 0.047096375
-0.26448753 0.33331412 0.50178236 -0.4271673 0.023607425 -0.08835088 -0.60755086 -0.16130717
00000000: 3f67 06bf d9a6 623f b261 ddbe 8b9a 6c3f
00000010: e091 26be 17ea bc3e 38fa 3fbe 21e8 403d
00000020: e96a 87be 26a8 aa3e cf74 003f acb5 dabe
00000030: 5c64 c13c 4ef1 b4bd 7488 1bbf b52d 25be

fc1.weight f4 [120, 400]
-0.121591754 -0.01909851 -0.10256374 -0.08433814 -0.03149396 -0.048061717 -0.067582704 -0.038596153
-0.017859899 0.015728038 0.12466308 -0.08308346 -0.04293687 -0.04603647 -0.0050477954 0.1562739
-0.009392112 0.0046200184 0.0033286877 0.024481673 -0.032378517 -0.012249237 -0.06970543 -0.013436174
-0.07756546 -0.045734722 -0.07462732 -0.05349756 -0.0075505096 -0.06082322 -0.04434791 -0.050229646
-0.028315116 -0.015823716 -0.11229579 -0.06241521 -0.0427996 0.009870604 -0.04335202 -0.05904701
-0.01863099 -0.08597929 -0.030983841 -0.007132048 -0.021285705 -0.048978962 -0.053446222 -0.12449509
-0.09770219 -0.068590134 -0.028680108 -0.012608049 0.019898491 -0.097449474 -0.050983 -0.019481922
0.047958653 0.062320188 0.022522634 0.007523377 0.00028939612 0.035649855 0.07578729 -0.037601285
-0.040901598 0.07075035 0.023314938 0.008815247 -0.022060484 -0.004160725 -0.03680517 -0.12591802
-0.13035169 -0.02738987 0.035469107 -0.084310375 -0.021398421 0.023436822 -0.03273934 0.0075064073
-0.10929673 -0.051715948 -0.042403866 -0.059305076 0.031914365 -0.01775662 -0.087108664 -0.02973422
-0.01906741 -0.023124602 0.0015010859 -0.015159703 -0.067656666 -0.06308061 -0.04372489 -0.031890165
0.011351332 -0.025040084 -0.044198327 -0.006312125 -0.014829704 -0.01909168 0.03936683 -0.042004846
0.09023677 0.046431277 -0.0020895654 0.024589375 0.08877246 0.120002605 0.11391974 0.10970402
-0.015817234 0.045333624 0.085571446 0.07924358 0.0348645 0.010709194 0.048729427 0.031375743
-0.0009780532 0.04378555 0.048891813 0.034261785 -0.03516264 -0.046088792 0.00915677 -0.019546637
-0.03439658 -0.09740906 0.056750964 0.03992244 -0.020782677 -0.03860489 -0.009034451 0.025374657
0.024879036 0.05655935 0.0018600291 -0.059980758 -0.040155787 -0.014157136 0.028521322 -0.07989943
-0.0056988127 0.061925296 0.035186816 0.055752043 0.05435694 0.16378444 -0.0164519 -0.03287138
-0.022094408 0.012844763 0.022626497 -0.009762905 0.08814749 0.026365114 0.029942233 0.033662807
0.019046463 0.07404531 0.063811824 0.035513848 0.05271778 0.058187082 0.019663308 0.055489127
-0.0142358625 -0.07747793 -0.017276328 -0.119878 -0.06543696 -0.03463753 -0.06114379 -0.04137373
-0.017936602 0.0112950215 0.013052502 -0.018733162 0.026344012 0.045605935 0.010593154 -0.02405285
-0.027177263 -0.02707017 -0.027583886 0.02312968 0.015580341 0.039174534 0.00054197584 0.013532254
0.0156088965 -0.0497707 0.056712106 -0.03739247 0.006241968 0.049562134 0.01805664 0.10952198
-0.06559543 0.05273474 -0.014957835 0.007741294 -0.011809865 -0.06223747 -0.0031879246 -0.00461977
0.010582129 -0.01992133 0.004203725 -0.045555618 -0.10538637 0.044194993 -0.045113314 0.00014217405
-0.041888066 -0.11085841 -0.014237231 -0.021793079 -0.0022372163 -0.059044562 -0.095593125 -0.12191074
-0.11046371 0.048552163 -0.019199833 0.051051542 -0.00017190233 0.041957498 0.08465702 -0.012312638
0.018516906 0.028088178 -0.0051971064 0.04992941 -0.045962986 0.0063830726 0.040945537 -0.027179802
-0.0130037535 -0.018615186 0.05252258 -0.019884637 0.06612233 0.044575233 -0.011809793 0.043387208
-0.008492212 0.057282537 -0.018133242 -0.074868135 -0.076233394 -0.06082515 -0.05099587 -0.012781284
00000000: 1905 f9bd 7a74 9cbc f00c d2bd 7ab9 acbd
00000010: d0ff 00bd 5ddc 44bd cd68 8abd 0017 1ebd
00000020: ec4e 92bc 16d8 803c 5b4f ff3d a927 aabd
00000030: 92de 2fbd bd90 3cbd fa67 a5bb 4406 203e
00000040: 5fe1 19bc 8663 973b 1d26 5a3b ca8d c83c
00000050: 569f 04bd 06b1 48bc b8c1 8ebd 6623 5cbc
00000060: a4da 9ebd 5554 3bbd 35d6 98bd 4220 5bbd
00000070: 446a f7bb c521 79bd 27a6 35bd 9abd 4dbd
00000080: 1af5 e7bc bda0 81bc 56fb e5bd 17a7 7fbd
00000090: a24e 2fbd 50b8 213c e391 31bd 47db 71bd
000000a0: 05a0 98bc e915 b0bd d3d1 fdbc f4b3 e9bb
000000b0: 5c5f aebc 2a9e 48bd 6dea 5abd 48f7 febd
000000c0: 1618 c8bd fc78 8cbd 8cf2 eabc fe91 4ebc
000000d0: 2902 a33c 9793 c7bd 8dd3 50bd 8d98 9fbc
000000e0: 4b70 443d 7443 7f3d 6381 b83c a986 f63b
000000f0: 17ba 9739 9505 123d 5e36 9b3d ce03 1abd
00000100: 6f88 27bd 8fe5 903d f8fe be3c d36d 103c
00000110: 30b8 b4bc b156 88bb 05c1 16bd a7f0 00be
00000120: ea7a 05be b860 e0bc 0e48 113d ebaa acbd
00000130: be4b afbc 94fe bf3c b019 06bd 4ff8 f53b
00000140: f7d6 dfbd 1ad4 53bd adaf 2dbd e1e9 72bd
00000150: a3b8 023d 5576 91bc 0766 b2bd 2e95 f3bc
00000160: 4233 9cbc ce6f bdbc 16c0 c43a 6760 78bc
00000170: 948f 8abd 6830 81bd df18 33bd 439f 02bd
00000180: f0fa 393c dd20 cdbc 4e09 35bd f1d5 cebb
00000190: 49f8 72bc 2866 9cbc 1d3f 213d 460d 2cbd
000001a0: 0ece b83d b92e 3e3d 17f1 08bb a86f c93c
000001b0: 56ce b53d edc3 f53d c14e e93d 80ac e03d
000001c0: 2593 81bc c0af 393d 1540 af3d 754a a23d
000001d0: 14ce 0e3d 9d75 2f3c 8298 473d da83 003d
000001e0: 0532 80ba 7a58 333d c842 483d 1656 0c3d
000001f0: b306 10bd 9ac7 3cbd 4706 163c 4520 a0bc
00000200: 6ee3 0cbd 677e c7bd b373 683d b685 233d
00000210: 6f40 aabc 2920 1ebd 3c05 14bc 83de cf3c
00000220: 1fcf cb3c c7aa 673d 38cc f33a 62ae 75bd
00000230: 657a 24bd 55f3 67bc 8ca5 e93c 50a2 a3bd
00000240: 1bbd babb 61a5 7d3d 0d20 103d 415c 643d
00000250: 62a5 5e3d 1cb7 273e 23c6 86bc 24a4 06bd
00000260: 55ff b4bc d772 523c 345b b93c 97f4 1fbc
00000270: ac86 b43d a7fb d73c 6a49 f53c 03e2 093d
00000280: 5407 9c3c 11a5 973d c6af 823d f876 113d
00000290: 99ee 573d 9455 6e3d f214 a13c 9148 633d
000002a0: 893d 69bc c0ac 9ebd 1687 8dbc 9982 f5bd
000002b0: d003 86bd 15e0 0dbd e971 7abd 8077 29bd
000002c0: c8ef 92bc c10e 393c 29da 553c 4a76 99bc
000002d0: 66cf d73c 4acd 3a3d e88e 2d3c 7c0a c5bc
000002e0: daa2 debc 43c2 ddbc 9af7 e1bc 747a bd3c
000002f0: b044 7f3c 7a75 203d 6213 0e3a 63b6 5d3c
00000300: 75bc 7f3c 5ddc 4bbd f44a 683d d928 19bd
00000310: 6c89 cc3b aa01 4b3d 85eb 933c 0f4d e03d
00000320: e656 86bd 6200 583d b511 75bc aeaa fd3b
00000330: 2a7e 41bc b8ec 7ebd 80ec 50bb 7161 97bb
00000340: aa60 2d3c 0f32 a3bc 67bf 893b 8798 3abd
00000350: cfd4 d7bd cf05 353d bdc8 38bd 8e14 1539
00000360: d292 2bbd bc09 e3bd 4643 69bc 6687 b2bc
00000370: 439e 12bb b6d8 71bd 54c6 c3bd 57ac f9bd
00000380: cc3a e2bd a2de 463d f848 9dbc 6c1b 513d
00000390: ae40 34b9 a0db 2b3d a960 ad3d f2ba 49bc
000003a0: c4b0 973c 2e19 e63c 7d4c aabb c882 4c3d
000003b0: af43 3cbd 1829 d13b 82b6 273d 2da8 debc
000003c0: b20d 55bc e07e 98bc eb21 573d 1be5 a2bc
000003d0: 256b 873d 8594 363d dd7d 41bc c9b6 313d
000003e0: eb22 0bbc 18a1 6a3d 2a8c 94bc 7754 99bd
000003f0: 4120 9cbd cb23 79bd 0ce1 50bd 9768 51bc

fc1.bias f4 [120]
0.13807975 0.08318631 0.036014855 -0.24533077 0.10948697 0.016740924 0.011502721 -0.03685112
0.002016865 0.057008557 0.017172987 0.19412366 -0.054045383 0.307959 -0.12866479 -0.07102407
0.074515805 -0.032490645 0.03085688 -0.030427687 -0.031334627 -0.022429405 0.017044168 -0.06755633
0.047727775 0.16900969 0.018985702 0.0008671422 0.0053008464 0.051726 -0.03357404 -0.043958653
-0.13442405 0.062069505 0.060611457 0.114173815 0.045345064 0.16480856 0.07373374 -0.08725555
-0.00014027419 -0.009124934 -0.14234653 -0.030126393 -0.03261631 0.044638686 0.025213366 -0.044967923
-0.037024014 0.20628783 -0.0009357864 0.06773786 0.031046879 0.07141097 0.03654117 -0.02408675
0.12936062 0.08938788 0.025312683 -0.008171709 0.052991524 -0.039866418 0.024958137 0.011240785
0.09578769 -0.023291785 0.026262267 0.06694026 0.008531992 0.08455005 0.11084881 -0.008123886
-0.042591162 -0.051383916 -0.008964157 0.091672175 0.029879998 0.093113914 -0.053833544 0.04049074
0.023465328 -0.1696815 -0.05048548 -0.042554744 0.08678508 -0.037327074 -0.028719325 0.015598669
-0.015448397 0.014895135 -0.037062895 -0.015709572 0.020508446 0.0018645308 -0.04716677 0.17881198
0.01421475 0.09305785 0.1769498 0.027093003 -0.018681137 0.10447679 -0.026984049 -0.011487403
-0.0005274233 -0.028470824 0.03862847 0.012151101 -0.16026916 0.072295405 -0.0033542833 0.063380085
-0.035996452 0.17279254 -0.040526673 0.090137556 -0.011089345 -0.025026213 0.0161941 0.052126758
00000000: c764 0d3e 965d aa3d 5084 133d fd37 7bbe
00000010: b43a e03d 4324 893c e975 3c3c 33f1 16bd
00000020: 612d 043b ce81 693d 5dae 8c3c 5ac8 463e
00000030: b15e 5dbd cdac 9d3e b4c0 03be 1175 91bd
00000040: be9b 983d e914 05bd 91c7 fc3c 7c43 f9bc
00000050: bd58 00bd dfbd b7bc 36a0 8b3c f95a 8abd
00000060: 337e 433d e010 2d3e e787 9b3c ee50 633a
00000070: b9b2 ad3b a4de 533d ef84 09bd fd0d 34bd
00000080: 75a6 09be 983c 7e3d b843 783d f6d3 e93d
00000090: bfbb 393d 93c3 283e b701 973d 0ab3 b2bd
000000a0: 9116 13b9 bf80 15bc 4ac3 11be a0cb f6bc
000000b0: ae98 05bd 0ed7 363d 438c ce3c 4930 38bd
000000c0: 7ea6 17bd 1e3d 533e 904f 75ba 26ba 8a3d
000000d0: 0656 fe3c ea3f 923d 32ac 153d 9351 c5bc
000000e0: 1c77 043e fe10 b73d 8b5c cf3c a2e2 05bc
000000f0: a40d 593d f84a 23bd 0275 cc3c 452b 383c
00000100: 562c c43d 6ace bebc f723 d73c fa17 893d
00000110: c5c9 0b3c 9428 ad3d b304 e33d 0c1a 05bc
00000120: 1274 2ebd f177 52bd 66de 12bc 9fbe bb3d
00000130: e6c6 f43c 82b2 be3d 9080 5cbd 9ed9 253d
00000140: 5c3a c03c fdc0 2dbe ddc9 4ebd e24d 2ebd
00000150: 60bc b13d 46e4 18bd ca44 ebbc 8f91 7f3c
00000160: 461b 7dbc b90a 743c 43cf 17bd 5cb1 80bc
00000170: 5401 a83c 4663 f43a f131 41bd 7d1a 373e
00000180: fce4 683c 1d95 be3d 5432 353e 25f2 dd3c
00000190: 2f09 99bc edf7 d53d a70d ddbc a935 3cbc
000001a0: c742 0aba a53b e9bc e338 1e3d 6915 473c
000001b0: 991d 24be 9d0f 943d 89d3 5bbb 6bcd 813d
000001c0: 0471 13bd 87f0 303e 4cff 25bd 0a9a b83d
000001d0: 16b0 35bc c603 cdbc 7da9 843c de82 553d

fc2.weight f4 [84, 120]
0.14894038 0.0573286 0.07335554 -0.0771044 -0.07216282 0.0061597293 0.01685063 0.009784248
0.06343391 0.12647776 0.0628987 -0.10656659 0.03571295 -0.07560257 0.089495465 -0.11870816
0.13191205 -0.040329736 -0.06937113 -0.070296474 0.047776308 0.03518688 0.005244295 -0.028292617
-0.019027384 0.05742442 -0.03357648 -0.06642206 -0.012962499 -0.03452016 -0.07910087 -0.057532147
-0.033135228 0.087792054 0.0803244 0.0951443 0.051461652 0.10501134 -0.034583114 -0.11347466
0.050234657 0.0018742569 -0.06257536 0.0091135595 0.053487368 0.09089796 0.034311295 0.033722587
-0.0639977 -0.012198481 0.008882466 0.051873367 -0.052698117 0.073689595 -0.02805245 0.055806078
-0.0786415 -0.026328105 0.016498832 0.027692506 0.06447537 0.10334169 0.026425388 0.06219899
0.102476805 0.046701316 -0.004389148 -0.076812044 0.0716611 0.054951485 0.06768219 -0.09120254
0.074791245 -0.002269511 0.07086239 -0.053670324 0.043223653 0.0008529186 -0.050948933 0.061407797
0.07686323 -0.11963692 -0.017470734 -0.056703616 -0.08088826 -0.00174383 -0.07181938 0.011228278
0.04061383 -0.023723539 -0.0051012877 0.08424426 -0.068220876 0.036623053 0.04505739 0.05982094
0.09261621 0.0016699418 -0.04019699 0.117340796 -0.06654083 0.013557777 0.10013273 -0.016517818
-0.06722676 0.02863685 0.09629828 0.018606447 -0.10544784 0.040984552 -0.05164166 -0.0080271
0.06099321 -0.04539498 -0.014752421 -0.095840104 -0.070572875 0.06013018 0.036004033 -0.059120174
-0.030157484 -0.062250372 -0.082236685 0.038090415 -0.018940276 -0.08104091 0.04117001 0.08636045
0.087449566 0.04803251 -0.0024414891 0.051665526 -0.047939744 -0.035975277 0.028706804 0.050184887
0.006657679 -0.04766134 -0.008808835 -0.09460159 -0.04649036 -0.01717279 -0.09274493 -0.060778778
-0.010794203 0.065008365 -0.021275822 0.05884693 0.029407745 0.055636253 0.07004179 -0.02675762
-0.008454623 0.0640221 -0.0069784597 0.057717748 -0.06926484 -0.05496732 0.028550453 -0.06457943
-0.053071044 -0.08063965 0.02380613 0.11627912 -0.07546742 0.025191668 -0.08411283 0.018828297
-0.056348883 -0.08281844 -0.04612959 -0.045206904 0.033687048 0.045828518 -0.040717766 -0.05501926
-0.060054403 0.0519528 -0.013756007 0.068144314 0.061040536 0.048694834 0.08440825 -0.021303687
0.06780885 -0.02353079 -0.07265021 -0.010866551 0.07746892 -0.047111817 -0.07593208 0.05264852
0.05870147 0.010528107 0.014630778 0.015752861 0.021794764 0.028742772 -0.094523296 0.009718821
-0.074493155 -0.008506407 0.010264013 -0.023267882 0.057753585 -0.08557049 -0.049043912 0.042625625
-0.0050479877 -0.024366386 -0.079547845 0.041564297 0.07018299 -0.00415343 -0.021064505 -0.02554311
0.0043243435 0.058749605 0.05224133 -0.080327146 0.06573502 0.03710095 0.062163875 -0.010379094
0.012472391 -0.038968712 0.07547236 -0.017790461 -0.006029745 -0.03482069 0.07875567 -0.07699838
-0.0839061 -0.053504284 -0.020151941 -0.06452066 -0.029995678 0.014211078 0.07877552 -0.08570304
-0.06429639 0.0066368976 -0.029005121 -0.010307271 -0.056185372 0.08027298 0.009574828 -0.015858611
-0.008729861 -0.05989704 0.094611585 -0.048284497 0.043387163 -0.12861116 -0.05793693 -0.048742812
00000000: d483 183e 65d1 6a3d 6e3b 963d e9e8 9dbd
00000010: 1aca 93bd 8ed7 c93b 550a 8a3c 1c4e 203c
00000020: a3e9 813d 6383 013e 09d1 803d 963f dabd
00000030: be47 123d 85d5 9abd 6649 b73d 441d f3bd
00000040: f413 073e cb30 25bd 7312 8ebd 99f7 8fbd
00000050: 17b1 433d 1e20 103d 56d8 ab3b ebc5 e7bc
00000060: 51df 9bbc de35 6b3d 7e87 09bd 4a08 88bd
00000070: a960 54bc 0365 0dbd a3ff a1bd d4a6 6bbd
00000080: ceb8 07bd 52cc b33d 1e81 a43d 04db c23d
00000090: 74c9 523d 2f10 d73d 06a7 0dbd 6765 e8bd
000000a0: dbc2 4d3d a0a9 f53a 8327 80bd 0a51 153c
000000b0: 9215 5b3d b628 ba3d 008a 0c3d b220 0a3d
000000c0: 3a11 83bd 23dc 47bc c387 113c 2b79 543d
000000d0: fbd9 57bd 92ea 963d 40ce e5bc ea94 643d
000000e0: cb0e a1bd 0aae d7bc 8f28 873c 65db e23c
000000f0: aa0b 843d cfa4 d33d 0e7a d83c 5ec4 7e3d
00000100: 5cdf d13d e149 3f3d d8d2 8fbb a24f 9dbd
00000110: 0ec3 923d cf14 613d f69c 8a3d 66c8 babd
00000120: 272c 993d 14bc 14bb 4d20 913d 6ad5 5bbd
00000130: 490b 313d 6696 5f3a d4af 50bd be86 7b3d
00000140: 786a 9d3d 3404 f5bd c91e 8fbc 0d42 68bd
00000150: bea8 a5bd 3a91 e4ba 0a16 93bd d0f6 373c
00000160: b05a 263d de57 c2bc b428 a7bb 4188 ac3d
00000170: 63b7 8bbd 0e02 163d 198e 383d cd06 753d
00000180: 91ad bd3d f3e1 da3a 99a5 24bd 5f50 f03d
00000190: 8f46 88bd 7021 5e3c 6412 cd3d 6050 87bc
000001a0: 2fae 89bd d497 ea3c 0838 c53d 8c6c 983c
000001b0: 0af5 d7bd 6bdf 273d 3586 53bd 1984 03bc
000001c0: 04d4 793d 16f0 39bd 23b4 71bc d147 c4bd
000001d0: 8388 90bd 104b 763d f778 133d ff27 72bd
000001e0: d40c f7bc 3ffa 7ebd b56b a8bd b204 1c3d
000001f0: a328 9bbc c7f8 a5bd e2a1 283d bfdd b03d
00000200: c218 b33d bdbd 443d 6401 20bb 3b9f 533d
00000210: 775c 44bd d05a 13bd 882a eb3c ab8e 4d3d
00000220: a928 da3b 8a38 43bd ef52 10bc 7abe c1bd
00000230: ad6c 3ebd f3ad 8cbc 0ef1 bdbd 2bf3 78bd
00000240: 2bda 30bc 1b23 853d a24a aebc 7a09 713d
00000250: 83e8 f03c d7e2 633d 1272 8f3d cc32 dbbc
00000260: 4285 0abc 051e 833d 90ab e4bb 7269 6c3d
00000270: b9da 8dbd 6a25 61bd a4e2 e93c 3842 84bd
00000280: 0661 59bd 6726 a5bd 1305 c33c bf23 ee3d
00000290: aa8e 9abd c25e ce3c 5943 acbd cd3d 9a3c
000002a0: 16ce 66bd b79c a9bd 62f2 3cbd e02a 39bd
000002b0: 6efb 093d afb6 3b3d acc7 26bd e05b 61bd
000002c0: 9bfb 75bd 76cc 543d e060 61bc 3f8f 8b3d
000002d0: a405 7a3d 3c74 473d 3cde ac3d 1285 aebc
000002e0: 5edf 8a3d a5c3 c0bc a2c9 94bd 9e09 32bc
000002f0: 06a8 9e3d 52f8 40bd 4782 9bbd f9a5 573d
00000300: f470 703d 157e 2c3c eeb5 6f3c 250c 813c
00000310: ef8a b23c f675 eb3c 6e95 c1bd b13b 1f3c
00000320: de8f 98bd 755e 0bbc 642a 283c 499c bebc
00000330: 068f 6c3d 953f afbd 45e2 48bd 3598 2e3d
00000340: 9769 a5bb 049c c7bc fbe9 a2bd 533f 2a3d
00000350: 19bc 8f3d 7f19 88bb 788f acbc c93f d1bc
00000360: 39b3 8d3b 6da3 703d 01fb 553d 8f82 a4bd
00000370: 15a0 863d 2af7 173d 8c9f 7e3d 130d 2abc
00000380: 0059 4c3c a89d 1fbd 4191 9a3d 4dbd 91bc
00000390: 2b95 c5bb 24a0 0ebd a74a a13d 54b1 9dbd
000003a0: f6d6 abbd 4f27 5bbd af15 a5bc 6823 84bd
000003b0: 7fb9 f5bc 95d5 683c 0f55 a13d 1385 afbd
000003c0: d3ad 83bd 557a d93b 269c edbc d4df 28bc
000003d0: a222 66bd 2966 a43d bddf 1c3c ebe9 81bc
000003e0: b107 0fbc 9956 75bd b8c3 c13d f7c5 45bd
000003f0: bdb6 313d a5b2 03be 464f 6dbd 8ba6 47bd

fc2.bias f4 [84]
0.09596667 -0.061685294 0.05538931 -0.097594574 0.40424594 0.39631957 -0.01306742 0.115955904
-0.016392756 0.11120266 0.22692087 -0.060333222 0.11469647 -0.07967738 -0.088271655 -0.065550536
-0.06443863 0.09568287 0.019568458 -0.07049622 0.22132468 -0.0106353555 -0.03646395 0.030697579
0.13688536 -0.007264905 0.23931946 -0.056003273 -0.03230914 -0.0032392873 -0.097786285 -0.036872394
0.020089217 0.11244281 -0.07565265 0.08864351 -0.077442296 0.23967566 -0.11878648 0.20581503
0.2027539 0.024646012 0.33627835 0.03214833 0.2503009 -0.002290289 0.2300926 0.004504383
0.1966495 0.035942294 0.055044856 -0.20529589 0.12439997 0.2366419 0.21574147 0.012812399
-0.17410773 0.07696424 0.20374027 0.08017445 0.1490024 0.15483804 0.012166225 0.040919136
0.062065836 0.18720815 -0.058820337 0.13236383 0.08840694 0.025952013 -0.07595419 0.2173059
-0.03792201 0.1660328 -0.028523618 -0.11621632 -0.009842305 -0.056637403 -0.016428277 -0.09270781
-0.038902443 0.029579354 -0.08908384 -0.06567899
00000000: 2c8a c43d b8a9 7cbd e7df 623d aadf c7bd
00000010: 53f9 ce3e 66ea ca3e bb18 56bc 4a7a ed3d
00000020: 1a4a 86bc 38be e33d f25d 683e f81f 77bd
00000030: fce5 ea3d e52d a3bd c5c7 b4bd 5c3f 86bd
00000040: 67f8 83bd 61f5 c33d 084e a03c 5260 90bd
00000050: f0a2 623e ea3f 2ebc 395b 15bd 7d79 fb3c
00000060: ad2b 0c3e 710e eebb 2910 753e b063 65bd
00000070: 9756 04bd 394a 54bb 2d44 c8bd 8207 17bd
00000080: 2492 a43c 6a48 e63d c7ef 9abd bb8a b53d
00000090: 119a 9ebd 896d 753e 5346 f3bd 2dc1 523e
000000a0: b89e 4f3e 6fe6 c93c ad2c ac3e f8ad 033d
000000b0: 7127 803e ac18 16bb 659d 6b3e 8199 933b
000000c0: 7d5e 493e 3a38 133d b776 613d 1639 52be
000000d0: 69c5 fe3d 4152 723e 55eb 5c3e 19eb 513c
000000e0: 4c49 32be 6d9f 9d3d 4aa1 503e 8132 a43d
000000f0: 1694 183e dd8d 1e3e d954 473c d39a 273d
00000100: bf38 7e3d 7eb3 3f3e 98ed 70bd 628a 073e
00000110: b30e b53d 5199 d43c df8d 9bbd 7085 5e3e
00000120: 1c54 1bbd 8104 2a3e 5daa e9bc d202 eebd
00000130: 9f41 21bc 9ffc 67bd 9894 86bc 98dd bdbd
00000140: 2b58 1fbd 6750 f23c 9771 b6bd b582 86bd

fc3.weight f4 [10, 84]
0.09128762 -0.04397341 0.15075599 -0.022101186 -0.08118112 -0.12788437 0.020658506 -0.067966625
0.10775394 -0.072578564 -0.057328194 0.01012801 -0.30126902 0.000999838 -0.018555872 -0.20229857
-0.09002261 0.065453276 -0.12233447 0.31998587 0.093199946 0.24755292 0.032842085 0.027088504
-0.16132672 -0.03036734 -0.09824903 0.017829584 0.044288002 0.17667954 -0.014050318 -0.025632476
0.051637594 0.18184319 0.0680229 -0.14318737 -0.0963538 0.003988962 0.1991688 0.01661427
0.2618593 -0.0049327565 -0.36354578 -0.04103193 0.25270164 0.09537083 0.188657 -0.08669284
0.13935098 -0.056726944 0.09783325 0.05913826 0.12368344 -0.23538828 -0.09703782 0.13081995
-0.0018631512 0.13192987 0.13378161 -0.08968008 0.045386855 0.10548953 -0.04583792 -0.020434834
-0.020913307 -0.08582612 -0.01783249 -0.31508717 -0.13111202 -0.038746815 -0.042838298 0.07604768
0.116573595 0.046643734 -0.073903546 0.0415102 0.024387304 -0.033933852 -0.029827716 0.18975799
-0.02260416 -0.03239488 -0.019112747 0.06728851 -0.022707244 0.06849092 0.009203452 0.02183359
-0.05846831 -0.069623 0.079341166 -0.06836134 0.09073994 0.084273584 -0.27905422 -0.09563642
0.019947266 0.16821936 -0.030235203 0.13769615 0.18466426 0.054189645 0.028011823 -0.18949492
-0.28795937 0.25337553 -0.08969582 0.15689094 -0.21452269 0.117851585 0.10089843 0.27550247
-0.055196416 -0.12081795 0.27767792 -0.039417773 0.03872701 -0.057250295 -0.059180703 0.15578361
-0.08623035 -0.3960091 0.20957783 -0.053660117 0.11794536 0.14544754 -0.21069773 0.070848994
-0.1337579 0.32915407 -0.32351187 -0.045970112 -0.22149834 -0.075207874 0.031112647 0.32401976
0.11800894 -0.32898334 -0.14155617 0.045372084 0.023631962 0.038273998 0.20333083 0.10602368
-0.12962061 -0.07663037 0.005571268 -0.088157594 0.101499125 0.12643057 0.08532176 0.04034841
-0.05883342 0.21072063 -0.035152376 -0.12659211 -0.150065 -0.08504758 -0.013973693 0.14624889
0.08394374 0.21798038 -0.12617621 0.16450544 0.0036361145 -0.060836945 -0.21319233 -0.00018691742
-0.03694203 0.1063503 0.06757416 0.06331343 0.2452156 0.17826939 0.0319333 -0.04492091
-0.09882245 -0.2207065 0.10704022 -0.0038454258 0.063668415 0.01151898 -0.065470695 0.070895
-0.29548195 -0.15764946 0.06821495 0.20377554 0.30296704 0.09865901 -0.17754851 -0.1410735
0.25617644 -0.07011495 0.110943384 -0.11829969 -0.07473612 -0.08274036 0.08355042 -0.081378944
0.25886512 0.085931025 0.06355162 -0.0068304795 -0.09888545 0.07763053 -0.047760602 -0.0006359378
-0.09974091 -0.017911155 0.032887798 -0.060968153 0.004175721 -0.013051918 0.1557445 -0.086010456
0.10088771 0.029627161 0.10650784 0.043466937 0.14757408 0.08361403 0.07283936 0.19340153
-0.0062823836 -0.08278023 -0.097962625 -0.050942916 0.16180119 0.1868511 0.13577452 0.04843161
-0.16111487 -0.17457987 0.17842226 -0.06268173 0.12427383 -0.12830338 0.07145912 -0.05672107
0.05835011 0.0546621 0.075102545 -0.12346276 -0.10240921 -0.050379574 -0.12501805 0.084832616
-0.06784849 0.21932314 0.097087204 -0.022118662 -0.0016521389 0.053847052 -0.16097164 -0.042308934
00000000: 01f5 ba3d 761d 34bd c75f 1a3e 8c0d b5bc
00000010: 4942 a6bd 1ff4 02be 073c a93c 1632 8bbd
00000020: 19ae dc3d 12a4 94bd f8d0 6abd f4ef 253c
00000030: ef3f 9abe ff0c 833a 7c02 98bc 5b27 4fbe
00000040: c65d b8bd 5e0c 863d 7f8a fabd 30d5 a33e
00000050: 9ddf be3d 837e 7d3e 6c85 063d b6e8 dd3c
00000060: d532 25be eec4 f8bc ca36 c9bd 590f 923c
00000070: 5667 353d 7beb 343e 4e33 66bc 33fb d1bc
00000080: f181 533d 1a35 3a3e 974f 8b3d b69f 12be
00000090: 2455 c5bd d7b5 823b e8f2 4b3e a61a 883c
000000a0: 6c12 863e f6a2 a1bb ac22 babe 1911 28bd
000000b0: 1c62 813e c851 c33d 4d2f 413e 048c b1bd
000000c0: 06b2 0e3e 835a 68bd cd5c c83d f63a 723d
000000d0: be4d fd3d a009 71be c4bb c6bd aaf5 053e
000000e0: fb34 f4ba a018 073e 0cfe 083e 31aa b7bd
000000f0: 91e7 393d e50a d83d 8bc0 3bbd f466 a7bc
00000100: 6252 abbc 9bc5 afbd 7115 92bc 1b53 a1be
00000110: 3b42 06be fbb4 1ebd 3677 2fbd e3be 9b3d
00000120: 23be ee3d 800d 3f3d be5a 97bd 9906 2a3d
00000130: e2c7 c73c 39fe 0abd 4159 f4bc eb4f 423e
00000140: 5c2c b9bc 7eb0 04bd 5692 9cbc 8fce 893d
00000150: 8b04 babc f844 8c3d 13ca 163c 5bdc b23c
00000160: 777c 6fbd 8196 8ebd 9f7d a23d 0801 8cbd
00000170: ddd5 b93d a197 ac3d 32e0 8ebe 07dd c3bd
00000180: 7368 a33c b241 2c3e d1af f7bc 3800 0d3e
00000190: a118 3d3e f6f5 5d3d 0d79 e53c f50a 42be
000001a0: 696f 93be 70ba 813e 71b2 b7bd 05a8 203e
000001b0: d6ab 5bbe 2c5c f13d d6a3 ce3d a90e 8d3e
000001c0: a315 62bd 676f f7bd cd2b 8e3e 8874 21bd
000001d0: 37a0 1e3d 497f 6abd 7767 72bd bd85 1f3e
000001e0: 8a99 b0bd b4c1 cabe 929b 563e b6ca 5bbd
000001f0: 568d f13d 33f0 143e 25c1 57be 4719 913d
00000200: d5f7 08be e286 a83e 59a3 a5be 284b 3cbd
00000210: 76d0 62be 9606 9abd f3df fe3c ebe5 a53e
00000220: acae f13d 8170 a8be 1af4 10be 14d8 393d
00000230: d197 c13c 32c5 1c3d f535 503e f122 d93d
00000240: 44bb 04be 62f0 9cbd 2f8f b63b f88b b4bd
00000250: c6de cf3d 0477 013e 2dbd ae3d 6044 253d
00000260: 50fb 70bd 26c7 573e f0fb 0fbd 5da1 01be
00000270: a4aa 19be 6d2d aebd ebf1 64bc 45c2 153e
00000280: b2ea ab3d 4036 5f3e 5634 01be 1d74 283e
00000290: e14b 6e3b 2930 79bd 174f 5abe 43ff 43b9
000002a0: 8750 17bd 30ce d93d 5264 8a3d 79aa 813d
000002b0: cc19 7b3e 408c 363e 7ecc 023d fdfe 37bd
000002c0: 6d63 cabd e200 62be e737 db3d 8a03 7cbb
000002d0: 9664 823d 1bba 3c3c 8015 86bd 6631 913d
000002e0: 6949 97be dc6e 21be 48b4 8b3d 89aa 503e
000002f0: 7f1e 9b3e bc0d ca3d 47cf 35be 9275 10be
00000300: 8f29 833e 6d98 8fbd 4936 e33d 1c47 f2bd
00000310: 400f 99bd c773 a9bd 7c1c ab3d 01aa a6bd
00000320: f889 843e 9bfc af3d 5a27 823d 37d2 dfbb
00000330: 7484 cabd c1fc 9e3d 9fa0 43bd 10b5 26ba
00000340: f644 ccbd 6aba 92bc 5bb5 063d beb9 79bd
00000350: 7dd4 883b b6d7 55bc 7c7b 1f3e 4026 b0bd
00000360: 379e ce3d a9b4 f23c c820 da3d 630a 323d
00000370: a91d 173e d53d ab3d cd2c 953d 0d0b 463e
00000380: 74dc cdbb ae88 a9bd a1a0 c8bd 85a9 50bd
00000390: 36af 253e e555 3f3e 7a08 0b3e 3960 463d
000003a0: 4cfb 24be 11c5 32be 53b4 363e 475f 80bd
000003b0: 4783 fe3d f661 03be 2959 923d 5a54 68bd
000003c0: 8600 6f3d 5ee5 5f3d 5dcf 993d 0bda fcbd
000003d0: ebbb d1bd d05a 4ebd bb04 00be b9bc ad3d
000003e0: 26f4 8abd 3f96 603e a8d5 c63d 3232 b5bc
000003f0: 958c d8ba ba8e 5c3d c0d5 24be 224c 2dbd

fc3.bias f4 [10]
-0.2459591 -0.6160312 0.05345135 0.28983557 0.5045898 -0.24152604 0.15328883 -0.32466018
0.32027888 -0.28332436
00000000: b4dc 7bbe 39b4 1dbf ceef 5a3d 5465 943e
00000010: cc2c 013f 9a52 77be bff7 1c3e dc39 a6be
00000020: 98fb a33e e40f 91be
